…
2018-11-03 01:40:29.306185: I tensorflow/core/platform/cpu_feature_guard.cc:141] Your CPU supports instructions that this TensorFlow binary was not compiled to use: SSE4.1 SSE4.2 AVX AVX2 FMA
2018-11-03 01:40:29.307331: I tensorflow/core/common_runtime/process_util.cc:69] Creating new thread pool with default inter op setting: 2. Tune using inter_op_parallelism_threads for best performance.
_________________________________________________________________
Layer (type)                 Output Shape              Param #   
=================================================================
conv2d_1 (Conv2D)            (None, 100, 100, 3)       15        
_________________________________________________________________
batch_normalization_1 (Batch (None, 100, 100, 3)       12        
_________________________________________________________________
max_pooling2d_1 (MaxPooling2 (None, 50, 50, 3)         0         
_________________________________________________________________
conv2d_2 (Conv2D)            (None, 50, 50, 6)         78        
_________________________________________________________________
batch_normalization_2 (Batch (None, 50, 50, 6)         24        
_________________________________________________________________
max_pooling2d_2 (MaxPooling2 (None, 25, 25, 6)         0         
_________________________________________________________________
conv2d_3 (Conv2D)            (None, 25, 25, 12)        300       
_________________________________________________________________
batch_normalization_3 (Batch (None, 25, 25, 12)        48        
_________________________________________________________________
max_pooling2d_3 (MaxPooling2 (None, 12, 12, 12)        0         
_________________________________________________________________
flatten_1 (Flatten)          (None, 1728)              0         
_________________________________________________________________
dense_1 (Dense)              (None, 32)                55328     
_________________________________________________________________
dense_2 (Dense)              (None, 1)                 33        
=================================================================
Total params: 55,838
Trainable params: 55,796
Non-trainable params: 42
_________________________________________________________________
Epoch 1/1000
10/10 [==============================] - 2s 214ms/step - loss: 0.2052 - acc: 0.9365 - val_loss: 0.1847 - val_acc: 0.9375
Epoch 2/1000
10/10 [==============================] - 1s 85ms/step - loss: 0.0517 - acc: 0.9864 - val_loss: 0.1595 - val_acc: 0.9091
…
